demos/synthetic/initial_model.bin (torch, 1016 bytes, 1 tensors)

linear.weight f4 [3, 12]
000000 2e 83 2b 3f 74 22 7d 3f 66 63 37 bf 44 80 a3 bf
       0.6699704 0.98880696 -0.71636045 -1.2773519
000010 58 6b 09 be 1a 8c 86 bf b2 3f 20 bf 74 b8 93 be
       -0.13419855 -1.0511506 -0.6259719 -0.28851664
000020 e5 73 b8 3e 6e 5f 4e 3c b1 7d d5 3f de 77 2c 3f
       0.3602592 0.012595994 1.6678983 0.673704
000030 4d a9 53 bf 26 4c 5b bf f4 52 6c 3f fa 74 38 bf
       -0.8268021 -0.8566307 0.92314076 -0.7205349
000040 05 b9 38 3f 97 ad ad 3f b0 ec 6b 3f 4c 4b 1c 3f
       0.7215732 1.35686 0.9215803 0.61052394
000050 02 50 99 3e 93 af b6 bf 14 56 07 bf 59 5e 89 bf
       0.29943854 -1.4272331 -0.5286572 -1.0731918
000060 32 e6 6c 3d 6b 76 19 bf 82 06 88 3e 5b 4b e5 3f
       0.05783672 -0.59946316 0.26567465 1.7913622
000070 48 36 39 bf 3e 85 35 bf 74 70 93 be 77 52 42 3e
       -0.7234845 -0.70906436 -0.28796732 0.1897677
000080 ba 98 d4 be 66 24 8b 3f 3b 04 0b bf 12 56 a0 3e
       -0.4152277 1.0870483 -0.5430333 0.31315666
