demos/locomotion/initial_model.bin (torch, 1337 bytes, 1 tensors)

linear.weight f4 [6, 22]
00000000: 7c38 763c 3b13 6f3f d8dd 07bc d548 173c
00000010: b244 b0bb ac75 69bc b990 b33d 0b97 0abc
00000020: 265b 27bf cf44 cf39 92ab 66bf cbfd debd
00000030: d61c a1bf 32be 4b3d 0e59 b03f c82d c3bf
00000040: bbe4 f93c 993e 0c3f 90fc 21bd 0fb6 15bc
00000050: b67a 9a3e 595a f9be b195 febc 030b 53bd
00000060: 1bce a63d 7cb0 8bbd 5355 9a3c f444 5d3d
00000070: ed06 58bd a3ce c93e 3ab7 4d3f d6e3 cebe
00000080: f58b 803d 6c63 df3e 1e41 a33e c506 b43e
00000090: 0367 b4bf 1ff4 7c3f 1d0a 003d bda2 b8bc
000000a0: 6a7b 3f3d 6933 063e 149b 42bf c1d2 da3e
000000b0: 99fe b93d 726b 8dbe 5806 37bd ad72 42bd
000000c0: f849 be3d bab4 00bc 1468 f3be 3d0b de3a
000000d0: 07ea 6c3f 48b5 47ba bbc0 793f b49d 91be
000000e0: 2c62 033b 4d88 c6bf 9f3a 8abf 4510 eb3f
000000f0: 40ff ab3b ba3f f7bd b4ef 093d 98a6 813e
00000100: 1570 043e 81e3 633d 9fc5 963c 4cb2 84bd
00000110: c107 d13d f43e 073d 1c32 bfbc 1367 943c
00000120: 4fa6 ab3e 6d9f bf3f 178f ce3e 0104 cabe
00000130: aacf 6fbf 58a7 6bbd 9abf 0cbb f5fa 4cbc
00000140: 247e 0440 ee7d 4b3f 8ca4 86bc 0000 0000
00000150: ea4d c93d e1bb a4bf 98c1 9d3f a11d 9dbd
00000160: 9dc2 36bc 75f3 893e 0f82 42be 15dc f93d
00000170: ba3f d73c ca78 70be 9b42 093f f29a 8dbe
00000180: 842f 25bf 49bd 353f d0d1 0ebe 7b1a 523c
00000190: 4fb8 46be 03e9 663d 1d06 4e40 decd 71bf
000001a0: 0bfb c1bb 0000 0000 d068 d4bd b220 a7be
000001b0: cee9 cfbe 966f a5be e646 f2bc 60e8 ac3c
000001c0: 88cd 363c 242f 38bc 07fd 25bd 01b1 d93b
000001d0: caa0 93be 3432 2cc0 3923 f6be 300f 8b3f
000001e0: 261c bf3e c12d 643f 37c9 6d3e 8986 88be
000001f0: febd 24c0 ad0d 6dbf 65b0 8fbb 9c03 1d3d
00000200: 8f94 82bc c2e7 5e3e fb19 17be 2d33 d33e
0.015028115 0.9338872 -0.008292638 0.009233673 -0.005379283 -0.014249247 0.08767838 -0.008458863
-0.65373456 0.00039533383 -0.90105546 -0.10888251 -1.2586925 0.04974193 1.3777177 -1.5248346
0.030504575 0.54783016 -0.039547503 -0.009137644 0.30171746 -0.48701742 -0.031077238 -0.051524173
0.0814478 -0.06820771 0.018839514 0.054020837 -0.05274098 0.39415464 0.80357707 -0.404082
0.06276695 0.4363054 0.31885618 0.35161415 -1.4093937 0.9881 0.031259645 -0.022538537
0.046748556 0.13105549 -0.7601788 0.42738917 0.09081764 -0.27621037 -0.044683784 -0.047472645
0.09291452 -0.007855589 -0.47540343 0.0016940605 0.925446 -0.00076182606 0.9755971 -0.2844063
0.0020047529 -1.5510346 -1.079914 1.836434 0.005248934 -0.12072702 0.033675864 0.25322413
0.12933381 0.055636887 0.01840478 -0.0647932 0.10206557 0.03301902 -0.023339324 0.018115556
0.3352532 1.4970528 0.40343544 -0.3945618 -0.93676245 -0.05753264 -0.0021476508 -0.012511005
2.070199 0.7948903 -0.016435884 0.0 0.09829314 -1.2869836 1.2324705 -0.07671667
-0.011154798 0.26943555 -0.18994926 0.122001804 0.026275504 -0.23483577 0.53617257 -0.27657276
-0.6452563 0.7099195 -0.13947225 0.012823696 -0.19406246 0.05637456 3.2191231 -0.94454753
-0.005919819 0.0 -0.10371554 -0.32642132 -0.40608066 -0.32311696 -0.029574823 0.021106899
0.011157401 -0.011241708 -0.04052451 0.006643415 -0.2883361 -2.6905642 -0.48073748 1.086401
0.37326163 0.89132315 0.23221289 -0.26665142 -2.5740962 -0.9259899 -0.0043850415 0.03833352
-0.015939979 0.21768096 -0.14756005 0.41249982
